model/Model_syntethic_6.pt (torch, 176115 bytes, 7 tensors)

MLP_1.0.weight f4 [256, 7]
0.38665587 -0.6085238 0.16653053 0.017803019 -0.15213408 -0.26640168 -0.279483 0.25256258
0.23612957 0.027143918 -0.42146197 0.03953231 -0.030089367 -0.5705929 -0.23147699 -0.25468254
0.17317343 0.0976245 -0.0047918055 -0.22805187 0.5355581 -0.035915468 -0.05538067 -0.1726862
0.17679633 -0.29482138 -0.37476727 0.00072523544 -0.41783234 0.2183018 -0.22468592 0.08669804
-0.069212385 0.13814704 0.51174515 -0.28998497 -0.30177185 -0.35250837 0.0026367735 0.37082914
-0.059285205 -0.16935425 -0.5803545 -0.72091424 -0.15572067 -0.052741036 0.3148238 0.14824024
-0.3220562 0.14060786 0.22706644 0.03913299 0.16175005 -0.3475467 0.5268783 -0.2625016
-0.25908315 -0.0024400426 -0.008090544 -0.34054083 0.10635001 -0.38371143 0.50684065 -0.16006753
0.27076122 0.017961834 -0.27410918 0.1258835 -0.048691433 -0.05434954 0.18067847 -0.27377576
-0.23366193 0.0034720378 0.14438169 -0.36158955 -0.09204665 0.09162968 0.30805066 -0.0038041591
-0.15992697 -0.0054892893 0.2585656 -0.4191027 0.34085095 -0.0922303 -0.020982064 -0.18605785
0.03572511 0.053007975 -0.41306728 0.3737274 -0.33592415 -0.23940507 0.16033678 -0.23564981
-0.08672309 -0.30902424 -0.4043171 0.119617864 -0.22306542 0.008848737 -0.64546394 0.35053995
0.21183799 -0.30001253 -0.48384604 0.41113296 0.28790402 -0.20380981 0.15433517 -0.7846635
-0.67939705 -0.50072813 -0.18105681 0.2655341 -0.18002045 0.124824755 0.36789757 0.10006994
0.3041922 -0.2994819 -0.113718264 -0.25252488 0.39367545 -0.048412893 -0.4280829 -0.5440271
0.17664917 -1.0163667 0.46951884 -0.20044068 0.17122689 0.32515475 0.055551883 0.15800075
-0.20379283 -0.23409124 0.2574121 -0.17940669 0.13292427 0.15495148 -0.011584633 -0.5679566
-0.14295508 -0.38144028 0.2516665 0.19532165 0.30064553 -0.18630053 -0.25049806 -0.18393032
0.29861566 -0.17427824 -0.61426836 -0.4121077 -0.2638942 -0.75581354 0.25369456 0.25976056
-0.10078855 0.17189631 -0.310755 0.16125123 -0.43223894 -0.0780125 -0.59403896 -0.20902851
-0.21582301 -0.12727441 -0.04912203 0.1906474 -0.06931555 0.11589407 0.48668882 -0.40324336
0.3712067 0.2067463 0.48937443 -0.34642008 -0.50496066 0.10235053 -0.055318914 0.23711011
-0.13069244 0.6407697 -0.4600388 -0.2545186 0.009200579 -0.8725906 -0.9781967 -0.29241028
0.21352781 0.49512777 0.040105183 0.04694303 0.29004937 0.217999 -0.19874476 -0.4445526
-0.13336198 -0.2468567 -0.007324147 0.24264959 -0.05110017 0.27424005 0.24729311 0.07466723
0.33791992 -0.3764064 -0.08220422 -0.5019509 0.1897739 0.06101288 0.056742314 -0.55472165
-0.040421616 0.50605994 -0.47289976 0.08001913 -0.13521884 0.18618418 -0.66894394 -0.1476608
0.09624941 -0.26690733 0.05160482 -0.11074275 -0.39302474 0.4703168 0.4482184 0.31724614
-0.02345242 -0.038144384 0.030741496 -0.007881619 0.07132413 0.005743941 0.23535432 0.14747421
-0.19020678 0.046370916 0.0037533503 0.33854115 -0.41428572 0.35093728 0.0310909 -0.19328988
0.15772018 -0.015259159 0.16773862 -0.3280878 -0.20516843 0.19805175 0.21933387 -0.49629334
00000000: c2f7 c53e 37c8 1bbf fb86 2a3e a3d7 913c
00000010: 09c9 1bbe cd65 88be 6518 8fbe e24f 813e
00000020: f3cb 713e ec5c de3c ddc9 d7be a2ec 213d
00000030: fa7d f6bc 6012 12bf 4e08 6dbe c065 82be
00000040: 6054 313e 5bef c73d 9404 9dbb 6e86 69be
00000050: 561a 093f 191c 13bd d7d6 62bd a7d4 30be
00000060: 190a 353e d4f2 96be 7fe1 bfbe ba1d 3e3a
00000070: 1fee d5be 828a 5f3e 1114 66be be8e b13d
00000080: 39bf 8dbd 6b76 0d3e bb01 033f e978 94be
00000090: d781 9abe fa7b b4be b8cd 2c3b 51dd bd3e
000000a0: 0bd5 72bd 336b 2dbe 1d92 14bf d68d 38bf
000000b0: 3d75 1fbe fc06 58bd 9630 a13e 4acc 173e
000000c0: 8de4 a4be 82fb 0f3e 1b84 683e ea49 203d
000000d0: cea1 253e a4f1 b1be 7fe1 063f 9c66 86be
000000e0: 8ca6 84be 1fe9 1fbb 338e 04bc 5e5b aebe
000000f0: 09ce d93d d375 c4be 4fc0 013f bee8 23be
00000100: 37a1 8a3e b224 933c 0a58 8cbe 9be7 003e
00000110: ab70 47bd a09d 5ebd c703 393e 562c 8cbe
00000120: 1345 6fbe 218b 633b cbd8 133e 4422 b9be
00000130: f482 bcbd 57a8 bb3d d1b8 9d3e 334f 79bb
00000140: e5c3 23be 7fdf b3bb b662 843e a194 d6be
00000150: 0484 ae3e 3de3 bcbd 94e2 abbc f385 3ebe
00000160: 7e54 123d e41e 593d 8e7d d3be 3359 bf3e
00000170: 40fe abbe 9a26 75be 532f 243e 2f4e 71be
00000180: e09b b1bd 6d38 9ebe a702 cfbe 36fa f43d
00000190: 436b 64be 4bfa 103c 203d 25bf f979 b33e
000001a0: 0fec 583e 3e9b 99be abba f7be 0580 d23e
000001b0: 2868 933e 85b3 50be 0a0a 1e3e b5df 48bf
000001c0: f7ec 2dbf b82f 00bf f566 39be 16f4 873e
000001d0: 4857 38be 1fa4 ff3d 125d bc3e 78f1 cc3d
000001e0: 14bf 9b3e b155 99be 1fe5 e8bd f14a 81be
000001f0: d48f c93e 994c 46bd af2d dbbe 5c45 0bbf
00000200: 85e3 343e 4e18 82bf c664 f03e 5240 4dbe
00000210: 1a56 2f3e af7a a63e 5f8a 633d f3ca 213e
00000220: 11af 50be 9db5 6fbe 85cb 833e 63b6 37be
00000230: 4d1d 083e 9aab 1e3e 79cd 3dbc 9b65 11bf
00000240: d162 12be 244c c3be 6eda 803e 6602 483e
00000250: 36ee 993e 91c5 3ebe 4841 80be 3b58 3cbe
00000260: 27e4 983e ff75 32be b140 1dbf c8ff d2be
00000270: 241d 87be ff7c 41bf 41e4 813e 56ff 843e
00000280: 3a6a cebd 9605 303e 481b 9fbe 0b1f 253e
00000290: 6c4e ddbe 05c5 9fbd f012 18bf 920b 56be
000002a0: b500 5dbe 3954 02be 2f34 49bd 1239 433e
000002b0: 50f5 8dbd df59 ed3d 472f f93e ea75 cebe
000002c0: ce0e be3e 4db5 533e 498f fa3e f95d b1be
000002d0: 1a45 01bf 289d d13d 1696 62bd fecc 723e
000002e0: 3dd4 05be 7c09 243f 358a ebbe 4350 82be
000002f0: 06be 163c 1962 5fbf 196b 7abf cdb6 95be
00000300: 09a7 5a3e 6381 fd3e 5545 243d 5647 403d
00000310: 5a81 943e 213b 5f3e bf83 4bbe 669c e3be
00000320: 0b90 08be 01c8 7cbe 66ff efbb 2279 783e
00000330: 694e 51bd 3169 8c3e 683a 7d3e 22eb 983d
00000340: d703 ad3e 57b8 c0be b05a a8bd db7f 00bf
00000350: 1754 423e a4e8 793d a16a 683d 3d02 0ebf
00000360: 2391 25bd 258d 013f eb1f f2be 12e1 a33d
00000370: cf76 0abe 11a7 3e3e e93f 2bbf 6534 17be
00000380: 691e c53d 14a8 88be 935f 533d 18cd e2bd
00000390: 8a3a c9be 5dcd f03e e27c e53e 166e a23e
000003a0: 4a1f c0bc 493d 1cbd 97d5 fb3c e821 01bc
000003b0: 6312 923d ab37 bc3b b900 713e 7b03 173e
000003c0: 91c5 42be 6eef 3d3d c5fa 753b 4455 ad3e
000003d0: 421d d4be 0dae b33e 58b2 fe3c c8ed 45be
000003e0: 6681 213e 8d01 7abc acc3 2b3e 20fb a7be
000003f0: ac17 52be 14ce 4a3e 0f99 603e 291a febe

MLP_1.0.bias f4 [256]
0.14147341 0.3078506 -0.3845417 -0.16320717 -0.16787541 -0.2514554 0.0435223 -0.050086048
-0.19586352 -0.16435185 -0.22812228 0.14415799 0.28421515 -0.25562423 0.16696824 -0.0068745366
0.031517297 0.15994944 -0.37941623 -0.06359706 0.021919489 -0.2538261 0.16567574 0.3132795
-0.27877775 -0.2225878 -0.013284971 -0.16293971 0.17881201 -0.2607008 -0.07088774 0.14243689
-0.27644542 -0.37383807 0.2895315 0.24652787 0.01865881 -0.16552736 -0.06347364 0.21151835
0.031783737 0.045079898 -0.40953344 -0.42085057 0.19509257 -0.43059924 0.06874242 -0.2734389
-0.24544948 -0.112835415 0.2327048 0.062161185 0.2533981 -0.0042392663 -0.24441257 0.18103075
-0.25241944 -0.20787811 -0.1293821 -0.25543204 -0.16693795 0.22787273 0.20747627 -0.26525968
0.20735487 0.41051993 0.19060837 -0.01121975 0.2901192 0.14215489 -0.008207845 -0.16266108
-0.1289372 0.16384268 0.1270643 -0.21604042 -0.16158889 -0.120689444 0.053653993 -0.45409024
0.2611254 0.10761193 -0.39332417 0.2705546 0.004809993 -0.08815355 0.19319537 0.11526991
-0.006580106 0.10014024 0.096392855 0.27511021 -0.28803685 -0.21698587 0.03246223 -0.31606543
-0.27439034 -0.17647807 0.05393521 0.16571918 -0.48336574 -0.12334139 -0.2745312 0.303463
-0.049614504 -0.276214 -0.16211188 0.22104344 -0.06872291 -0.2226745 -0.02913154 -0.02200625
-0.019823853 0.16442157 -0.13933381 0.13556974 -0.09961345 0.46363488 -0.38082147 -0.27532783
-0.043486256 0.18119104 0.1923974 -0.09319031 0.12545994 0.26689142 -0.41246954 0.14001316
-0.114991024 0.18516256 -0.12266509 -0.16379765 -0.28229898 -0.097743146 0.4106521 0.07950687
0.12081005 0.12268015 -0.26617655 -0.014381901 0.19651313 0.32978252 -0.4309256 -0.06101301
0.1328542 0.14155483 0.052945603 0.0795059 -0.35771263 0.18609919 -0.12389202 -0.024152648
0.14715932 0.0023066862 -0.19006564 0.25665843 -0.41698134 0.14961241 -0.33438402 -0.21759534
-0.062071934 0.09641161 -0.30759332 0.19686154 0.15441391 0.3708989 -0.047903486 -0.42786837
0.2457966 -0.29848084 0.41256168 -0.23807386 -0.09146692 0.065049805 -0.17191713 -0.27166685
-0.081781045 0.2157778 -0.16982797 0.26687145 -0.42909303 -0.25627765 0.12621632 -0.33831283
0.32998332 -0.2518912 -0.15574995 -0.1889176 -0.3104802 0.03209936 -0.37413022 0.06272701
-0.36624235 -0.33915266 -0.25829545 -0.035284445 -0.08599443 -0.15694773 -0.36042717 -0.362621
0.23929468 -0.41818288 -0.11707921 0.013139043 0.14379893 -0.043994736 0.2563553 0.21295354
-0.30076477 0.24333157 0.41567764 0.197522 -0.026817398 0.13063426 0.1423387 -0.1898527
-0.055225458 -0.28898412 -0.37703916 -0.29383007 -0.2341794 0.4096223 -0.28672275 -0.4096788
0.19853094 -0.07628053 0.14761682 -0.32333088 -0.12038161 -0.2521444 -0.06515918 0.15511619
0.46856195 -0.34730718 0.48730543 -0.00477702 -0.47499722 0.29222032 0.05430486 0.2062776
-0.058444552 -0.08759659 0.09286199 -0.2936681 0.33411622 -0.029110095 0.23079431 -0.16813171
0.07326063 0.14742868 -0.26684093 -0.008377536 0.1105135 0.16474646 -0.052355688 0.11197873
00000000: 68de 103e 989e 9d3e a6e2 c4be c81f 27be
00000010: 88e7 2bbe c3be 80be 7044 323d 0727 4dbd
00000020: 7290 48be da4b 28be e398 69be 279e 133e
00000030: a684 913e 2ee1 82be b9f9 2a3e cb43 e1bb
00000040: 4818 013d c9c9 233e d842 c2be 2d3f 82bd
00000050: 8090 b33c 7ff5 81be e7a6 293e 2c66 a03e
00000060: f5bb 8ebe 0eee 63be 35a9 59bc abd9 26be
00000070: 7f1a 373e 937a 85be 972d 91bd fada 113e
00000080: 418a 8dbe b467 bfbe 793d 943e cd71 7c3e
00000090: 5cda 983c 0180 29be 78fe 81bd 4498 583e
000000a0: aa2f 023d b3a5 383d 5eae d1be ba79 d7be
000000b0: 59c6 473e 8177 dcbe d3c8 8c3d 2f00 8cbe
000000c0: 1c57 7bbe 4116 e7bd 2b4a 6e3e ba9c 7e3d
000000d0: 65bd 813e 8be9 8abb 4a47 7abe 2060 393e
000000e0: 1f3d 81be 00de 54be be7c 04be fdc7 82be
000000f0: c8f1 2abe 7857 693e a974 543e 1ed0 87be
00000100: d654 543e ab2f d23e d72e 433e 0bd3 37bc
00000110: 818a 943e 0d91 113e 327a 06bc a090 26be
00000120: 1d08 04be 60c6 273e 251d 023e b339 5dbe
00000130: 8f77 25be 072c f7bd 4ac4 5b3d 847e e8be
00000140: 3ab2 853e a563 dc3d c961 c9be 2286 8a3e
00000150: 259d 9d3b d989 b4bd 02d5 453e a112 ec3d
00000160: ee9d d7bb 5316 cd3d 9e69 c53d 3fdb 8c3e
00000170: 9179 93be 8b31 5ebe 1ef7 043d 54d3 a1be
00000180: e47c 8cbe abb6 34be 2beb 5c3d 4ab2 293e
00000190: b77b f7be 699a fcbd 5a8f 8cbe 815f 9b3e
000001a0: 9438 4bbd ec6b 8dbe a800 26be 3659 623e
000001b0: 99be 8cbd c904 64be 44a5 eebc 7446 b4bc
000001c0: a265 a2bc 215e 283e 86ad 0ebe cbd2 0a3e
000001d0: 2302 ccbd 8d61 ed3e 08fb c2be c5f7 8cbe
000001e0: a51e 32bd 258a 393e d303 453e 90da bebd
000001f0: 9278 003e fea5 883e 352f d3be 9c5f 0f3e
00000200: 6a80 ebbd 419b 3d3e d637 fbbd 92ba 27be
00000210: 7e89 90be 8f2d c8bd fe40 d23e 7fd4 a23d
00000220: 426b f73d bb3f fb3d 4b48 88be 11a2 6bbc
00000230: bd3a 493e 41d9 a83e 48a2 dcbe c7e8 79bd
00000240: ee0a 083e c0f3 103e 7ddd 583d fdd3 a23d
00000250: 1c26 b7be c990 3e3e 19bb fdbd c6db c5bc
00000260: efb0 163e c62b 173b 91a0 42be bc68 833e
00000270: 947e d5be ff33 193e 6234 abbe 50d1 5ebe
00000280: 243f 7ebd 7373 c53d df7c 9dbe 1296 493e
00000290: ae1e 1e3e 76e6 bd3e 7236 44bd 9011 dbbe
000002a0: 1bb2 7b3e 7bd2 98be 493b d33e a2c9 73be
000002b0: 0253 bbbd d538 853d 0b0b 30be eb17 8bbe
000002c0: d27c a7bd dbf4 5c3e 62e7 2dbe 60a3 883e
000002d0: 15b2 dbbe d336 83be da3e 013e 5737 adbe
000002e0: 93f3 a83e e2f7 80be ea7c 1fbe 9e73 41be
000002f0: 43f7 9ebe 9e7a 033d ff8d bfbe 0577 803d
00000300: 1e84 bbbe 6ba5 adbe 4d3f 84be 6c86 10bd
00000310: d91d b0bd e8b6 20be e989 b8be 76a9 b9be
00000320: aa09 753e 111c d6be 3ac7 efbd 2445 573c
00000330: 0740 133e d333 34bd 0041 833e 7e10 5a3e
00000340: d7fd 99be e92b 793e b3d3 d43e 3543 4a3e
00000350: 29b0 dbbc fdc4 053e 3cc1 113e bf68 42be
00000360: 1734 62bd baf5 93be 470b c1be e570 96be
00000370: bacc 6fbe 04ba d13e 53cd 92be 6bc1 d1be
00000380: b24b 4b3e f738 9cbd dd28 173e a08b a5be
00000390: a28a f6bd 1219 81be 2d72 85bd c7d6 1e3e
000003a0: 5ae7 ef3e 3fd2 b1be 1980 f93e 8c88 9cbb
000003b0: d632 f3be e79d 953e c66e 5e3d 6f3a 533e
000003c0: 8e63 6fbd d765 b3bd 6d2e be3d aa5b 96be
000003d0: 4811 ab3e 4b78 eebc 5855 6c3e b82a 2cbe
000003e0: ab09 963d 8bf7 163e 609f 88be ef41 09bc
000003f0: e754 e23d 4cb3 283e eb72 56bd 1b55 e53d

MLP_2.0.weight f4 [128, 256]
-0.4659881 -0.726473 0.042336088 0.019353949 -0.14396812 0.060325556 0.011352333 0.10094191
-0.29581013 -0.0068797544 -0.0014940575 -0.2815292 -0.3882432 0.0025771707 -0.45783556 0.0068635466
-0.23703003 0.031778496 0.1559136 -0.08974189 0.12890933 -0.061179712 -0.16235049 -0.46592742
-0.15179724 -0.0025246255 -0.14176072 0.0355353 0.039691396 -0.12380238 0.00040435966 -0.2265468
-0.1180049 -0.02976714 0.015059693 7.378025e-05 -0.44422564 -0.40124834 -0.0038209131 -0.665031
-0.07520452 -2.899766e-05 0.052033205 -0.1260228 -0.06812449 -0.2901923 -0.001085741 -0.31470644
0.004784628 -0.8100686 -0.7089685 0.113639906 -1.3486197 0.0174639 -0.1383698 -0.74881107
0.031835586 -0.060981415 0.11145729 0.041400537 0.11994312 -0.27270988 -0.21474193 0.009469949
-0.24934666 -0.13509507 -0.3869885 0.11792277 -0.0976094 -0.06406419 -0.022290872 -0.3575659
0.081037454 -0.2946294 -0.43862778 0.048101984 -0.17350727 0.10113444 0.060581353 -0.6842106
-0.38545376 -0.27843958 -0.033951834 0.03230761 -0.023282394 0.030634739 -0.009134015 0.07088289
0.0257539 0.11398199 -0.011763406 -0.0026834253 0.04369939 -0.21799816 0.061057467 0.05947528
-0.03677343 -0.093037575 0.0062977765 -0.13380416 -0.2695056 0.043466676 0.023813732 0.16528346
0.002872806 -0.008239113 -0.18625064 0.012098487 -0.012899664 0.0008147508 -1.123741 -0.060886666
0.04196184 -0.15923655 -0.010702624 -0.3679628 -0.025303647 -1.5532933 -0.58901906 -0.026587782
0.009312274 0.02687489 -1.3302811 0.052796196 0.12980315 -0.006650593 0.67854625 -0.1233286
-0.45593464 -0.59912884 0.03844975 -0.03828819 -0.5964467 0.07267437 -0.43705282 0.003892243
-0.12728757 -0.08794471 -0.26274446 -0.03612502 -0.12902687 0.07815729 -0.08149619 -0.735468
-0.8375714 -0.52746356 -0.1096617 -0.21020798 -0.06449741 0.045175005 -0.27096343 -0.035089217
0.0776451 0.12655552 -0.035115533 0.03662175 -0.358768 -0.043045223 0.039901115 -0.18702933
-0.1930667 0.009480253 0.06266756 -0.10257985 -0.34142748 -0.029573718 0.11637 -0.8570802
0.0183959 0.08177759 -0.039197385 -0.3837935 0.06393885 0.11229281 0.09921127 -0.5236962
0.17379466 0.14159022 0.017100058 0.029977666 0.05006289 -0.6052622 -0.33726504 0.05142252
-0.08888058 -0.03351119 -0.014562085 -0.06928895 -0.5591051 -0.004907265 -0.026882425 0.054806888
-0.014245711 -0.44484887 0.0048957756 -0.63835764 -0.04917726 0.25356546 0.0028853267 0.052930288
-0.16726719 0.09483859 0.051446214 0.03201463 0.041941714 -0.26100907 0.06853706 -0.48109603
-0.15056096 -0.0029339744 -0.4437608 -0.12392284 -0.5628404 -0.6740757 -0.15651168 -0.0295764
0.16358785 0.019056723 -0.21942385 -0.111035556 0.16598529 0.039673436 -0.037915066 -0.23848705
-0.13147104 0.055788077 -0.26418665 -0.19589359 -0.03762678 -0.30332097 0.04710397 0.15136823
-0.27755073 -0.03434238 -0.14080885 0.004158847 -0.91076875 -0.10427745 -0.18524052 0.122020215
0.03532282 0.11940804 -0.0980772 -0.11918672 -0.16077395 -0.015559331 -0.01140468 0.05685018
-0.048352834 0.06870782 -0.03644614 -0.34021497 0.018535858 -0.2076261 -0.037068333 -0.7208464
00000000: fe95 eebe 22fa 39bf 9b68 2d3d 2c8c 9e3c
00000010: 616c 13be ee17 773d 23ff 393c a2ba ce3d
00000020: 6d74 97be 906f e1bb 40d4 c3ba 9824 90be
00000030: d0c7 c6be c0e5 283b 6c69 eabe 9ae7 e03b
00000040: 00b8 72be 2b2a 023d d1a7 1f3e 99ca b7bd
00000050: cf00 043e 9497 7abd 353f 26be 0a8e eebe
00000060: bc70 1bbe 3074 25bb b929 11be 768d 113d
00000070: 7293 223d 1a8c fdbd 3c00 d439 e2fb 67be
00000080: 8eac f1bd 38da f3bc eebc 763c 78ba 9a38
00000090: 8b71 e3be 6c70 cdbe 4968 7abb 793f 2abf
000000a0: d404 9abd 0040 f3b7 c520 553d 1f0c 01be
000000b0: da84 8bbd 1694 94be 6c4f 8eba 3421 a1be
000000c0: 5ec8 9c3b a860 4fbf f67e 35bf 0abc e83d
000000d0: 929f acbf 7410 8f3c d0b0 0dbe 15b2 3fbf
000000e0: 0866 023d a6c7 79bd b843 e43d 9c93 293d
000000f0: bda4 f53d a1a0 8bbe 4fe5 5bbe d827 1b3c
00000100: bb54 7fbe 5d56 0abe 5b23 c6be 7e81 f13d
00000110: 70e7 c7bd 1634 83bd 599b b6bc e112 b7be
00000120: f7f6 a53d aad9 96be d293 e0be 9606 453d
00000130: e4ab 31be 931f cf3d 2724 783d 6d28 2fbf
00000140: 325a c5be a28f 8ebe 1411 0bbd fc54 043d
00000150: b8ba bebc b4f5 fa3c d6a6 15bc 0c2b 913d
00000160: d8f9 d23c 646f e93d 4dbb 40bc 68dc 2fbb
00000170: 22fe 323d e93a 5fbe 6517 7a3d 5a9c 733d
00000180: bc9f 16bd 7c8a bebd 945d ce3b f503 09be
00000190: a3fc 89be 1d0a 323d 0415 c33c 1140 293e
000001a0: b045 3c3b 58fd 06bc 7db8 3ebe bb38 463c
000001b0: 1d59 53bc 0095 553a bfd6 8fbf 4c64 79bd
000001c0: 2ee0 2b3d e80e 23be 0f5a 2fbc 9f65 bcbe
000001d0: 9849 cfbc 51d2 c6bf f4c9 16bf 9fce d9bc
000001e0: 8292 183c bb28 dc3c a746 aabf d340 583d
000001f0: 1eeb 043e 38ed d9bb 35b5 2d3f b493 fcbd
00000200: 4470 e9be 8260 19bf 7c7d 1d3d 14d4 1cbd
00000210: bbb0 18bf 4dd6 943d 63c5 dfbe 0015 7f3b
00000220: ac57 02be 5b1c b4bd 7186 86be d4f7 13bd
00000230: 9f1f 04be ee10 a03d 79e7 a6bd a147 3cbf
00000240: 146b 56bf da07 07bf 5096 e0bd c340 57be
00000250: 3817 84bd 6d09 393d b8bb 8abe b6b9 0fbd
00000260: 6504 9f3d c597 013e 4ed5 0fbd b000 163d
00000270: 70b0 b7be 3050 30bd 5a6f 233d 9e84 3fbe
00000280: 47b3 45be 1053 1b3c da57 803d 6215 d2bd
00000290: 95cf aebe 9544 f2bc 6553 ee3d 9c69 5bbf
000002a0: 00b3 963c 027b a73d 708d 20bd 9580 c4be
000002b0: 5ff2 823d c6f9 e53d 472f cb3d f410 06bf
000002c0: 3af7 313e 07fd 103e 6c15 8c3c b993 f53c
000002d0: bf0e 4d3d 77f2 1abf 01ae acbe 6ca0 523d
000002e0: 0607 b6bd 0843 09bd d095 6ebc 5de7 8dbd
000002f0: 8321 0fbf 1fcd a0bb 8838 dcbc 307d 603d
00000300: d866 69bc 3bc3 e3be be6c a03b 686b 23bf
00000310: 186e 49bd 55d3 813e c017 3d3b 6ecd 583d
00000320: 1748 2bbe bc3a c23d 44b9 523d c621 033d
00000330: 13cb 2b3d fba2 85be 285d 8c3d 3852 f6be
00000340: a72c 1abe ec47 40bb 9e34 e3be 42cb fdbd
00000350: 4f16 10bf 3a90 2cbf 9944 20be 354a f2bc
00000360: 9383 273e d81c 9c3c a5b0 60be 9c66 e3bd
00000370: 0cf8 293e 9d80 223d d44c 1bbd f335 74be
00000380: 58a0 06be 0a82 643d 7943 87be 5498 48be
00000390: 8a1e 1abd e34c 9bbe 18f0 403d 4600 1b3e
000003a0: 211b 8ebe 98aa 0cbd 3230 10be f046 883b
000003b0: 2428 69bf 6a8f d5bd b1af 3dbe bce5 f93d
000003c0: a9ae 103d 348c f43d b3dc c8bd 2b18 f4bd
000003d0: eda1 24be 90ec 7ebc b2da 3abc bcdb 683d
000003e0: 9f0d 46bd afb6 8c3d 8c48 15bd a830 aebe
000003f0: 83d8 973c f09b 54be f7d4 17bd 6489 38bf

MLP_2.0.bias f4 [128]
0.045899555 -0.017169569 0.0062522637 -0.1334317 -0.04488035 -0.028446116 -0.073432 -0.013517191
-0.032642007 0.0018859386 -0.15510555 -0.01325161 0.06691677 0.010627093 0.06357321 -0.06617095
-0.08030896 -0.04591617 -0.057164915 -0.038373258 -0.04327828 -0.15917562 0.012757163 0.023265276
-0.044137463 -0.007339287 -0.05887461 0.06602909 -0.06172898 -0.040815953 -0.03530219 -0.04009978
-0.007611741 -0.015526309 0.010643854 -0.052835006 0.06335226 -0.05022484 -0.06450599 -0.03212414
-0.22182569 0.06638041 -0.04190213 -0.033056047 -0.08102087 0.08072374 -0.03413808 -0.06228702
-0.1963135 -0.045946993 0.027142923 -0.045443453 0.0023495993 -0.010300976 0.04696576 -0.04206254
0.13434517 -0.05364402 0.08222242 -0.01749948 -0.08311175 -0.012314787 -0.069742806 0.040049314
-0.0273199 -0.06904598 -0.1177969 -0.06029966 0.04788702 -0.014637053 -0.022921784 -0.020478316
-0.029012732 -0.020906705 0.034575652 0.13633554 -0.034842264 -0.03611015 -0.036048435 -0.004225792
0.013648223 -0.06506947 -0.060776338 -0.052600842 -0.06799039 -0.025485866 -0.010523595 -0.011851132
0.0417104 -0.032587424 -0.0022755684 0.049305715 0.0467538 0.008057538 0.06490725 0.041637607
-0.03746438 0.058674015 -0.08721488 -0.00290485 -0.04146485 0.05615931 -0.117336765 -0.040000614
0.028675755 0.03486938 -0.03092035 -0.069669746 0.062437415 -0.029103821 -0.036823973 0.0026544516
-0.015817232 0.065616 -0.06256496 -0.033528004 0.089130245 -0.0141660515 -0.016759157 0.002713809
0.09100018 0.08916673 -0.028876845 -0.015206147 -0.02968504 -0.00523228 -0.030391283 -0.01629182
00000000: 2c01 3c3d 32a7 8cbc cadf cc3b 52a2 08be
00000010: 75d4 37bd d407 e9bc 8463 96bd 3577 5dbc
00000020: a0b3 05bd 9931 f73a fdd3 1ebe 481d 59bc
00000030: a90b 893d 421d 2e3c ac32 823d a384 87bd
00000040: 0679 a4bd 9812 3cbd c225 6abd 472d 1dbd
00000050: 9144 31bd effe 22be 6b03 513c d296 be3c
00000060: 7cc9 34bd 677e f0bb 8126 71bd 423a 873d
00000070: 87d7 7cbd a12e 27bd 0799 10bd ab3f 24bd
00000080: e96b f9bb 0f62 7ebc 8f63 2e3c 8569 58bd
00000090: d4be 813d 90b8 4dbd b71b 84bd 9a94 03bd
000000a0: 4626 63be 74f2 873d 91a1 2bbd c765 07bd
000000b0: 45ee a5bd 7d52 a53d 5fd4 0bbd ad20 7fbd
000000c0: 6806 49be ea32 3cbd d65a de3c ea22 3abd
000000d0: bcfb 193b 6dc5 28bc 2b5f 403d c549 2cbd
000000e0: c891 093e d5b9 5bbd 3a64 a83d 125b 8fbc
000000f0: 7e36 aabd f6c3 49bc 51d5 8ebd c00a 243d
00000100: fccd dfbc fb67 8dbd 803f f1bd c7fc 76bd
00000110: 2e25 443d 40d0 6fbc 77c6 bbbc 24c2 a7bc
00000120: 1cac edbc 8a44 abbc 339f 0d3d 8b9b 0b3e
00000130: c3b6 0ebd 3de8 13bd 86a7 13bd 8378 8abb
00000140: cc9c 5f3c 2443 85bd 9cf0 78bd fb73 57bd
00000150: 8c3e 8bbd bcc7 d0bc 286b 2cbc 402b 42bc
00000160: 86d8 2a3d 647a 05bd b421 15bb caf4 493d
00000170: ea80 3f3d c403 043c 18ee 843d 328c 2a3d
00000180: 4074 19bd 2a54 703d b79d b2bd 4c5f 3ebb
00000190: 0cd7 29bd 4e07 663d 424e f0bd afd7 23bd
000001a0: 6be9 ea3c 32d3 0e3d ad4c fdbc 03af 8ebd
000001b0: 60be 7f3d 236b eebc bcd4 16bd 4ff6 2d3b
000001c0: 2493 81bc ae61 863d 0f22 80bd a954 09bd
000001d0: eb89 b63d ba18 68bc 804a 89bc 29da 313b
000001e0: 4d5e ba3d 0c9d b63d 228f ecbc 3423 79bc
000001f0: 0a2e f3bc 8c73 abbb 24f7 f8bc 6c76 85bc

MLP_3.0.weight f4 [64, 128]
0.42742053 -0.19756027 0.22666596 -0.3889903 0.002879277 0.012653057 0.013266399 -0.07366784
-0.05149351 0.05654183 -0.6566915 0.050689444 0.0014983807 0.33222082 -0.1090201 0.073294505
-0.030620318 0.061293274 0.1762962 -0.13809927 0.18136425 0.05604655 -0.31839678 0.20506418
0.28263164 0.08678989 0.058637775 0.12388535 0.078746326 0.0013492813 0.075732365 0.026870336
-0.15080477 -0.01302728 0.095521934 0.03687648 0.041769754 0.063148536 -0.07882603 0.033680055
-0.5978377 -0.3026557 -0.03170913 -0.022128401 -0.17224568 0.009221974 -0.076275654 -0.015715359
-0.6134756 0.07853211 -0.56312025 0.020614032 -0.46631658 -0.14000908 0.24076231 -0.057981424
-0.25071633 -0.008166609 0.29119867 0.026161077 0.055239785 -0.37666306 0.036119886 -0.07528479
0.058653213 -0.005356669 -0.05554182 0.020095902 -0.07612077 0.039169528 -0.06857065 -0.0698457
-0.30795974 0.04985169 -0.048400335 -0.3241657 -0.12848723 -0.020035375 0.09300398 0.031630952
0.1420614 0.040694267 0.1575857 -0.06550487 0.090231575 -0.0116519965 0.107594356 0.12884396
-0.76872647 0.50526774 -0.46921986 0.11453141 0.2899097 -0.426882 -0.18181588 -0.19440752
-0.11730914 -0.20563725 -0.08424402 -0.64304435 -0.09013375 -0.658352 0.047921877 -0.015187569
0.13531338 -0.37214926 -0.03600266 0.07718712 -0.07898414 -0.010935305 0.07066463 -0.38487086
0.037124664 0.2358522 0.060409214 -0.035029005 -0.63305885 0.07104613 -0.066895016 0.13617891
0.57933486 0.08487644 -0.049032092 0.06823365 0.004282868 -0.06931497 0.123672515 -0.29506436
-0.8730737 -0.044048578 0.01479279 -0.51400304 -0.019794686 -0.012413215 -0.049621694 0.0806014
-0.04477394 0.039532274 -0.2317452 0.039805733 0.27759764 -0.19328888 -0.021193095 -0.09663424
-0.030621048 0.033382762 -0.5339455 0.019109227 0.055754077 -0.08024738 -0.033998355 -0.22589485
0.0203502 -0.065271296 0.085636675 -0.5317309 0.011782703 0.0596908 -0.058098294 0.092834055
-0.2564458 -0.09896625 -0.2845956 0.011359351 0.13758744 0.013207445 0.048336856 -0.027463019
-0.23355971 0.01990785 0.056304798 -0.026335416 -0.044154875 0.0834166 -0.02495724 0.0037822747
-0.4110288 0.082545824 -0.003871849 -0.0009193008 -0.10440902 -0.042971928 -0.18277529 0.01941128
-0.032522645 0.062898524 0.08148778 -0.08594093 -0.0761748 -0.28844038 -0.011804839 -0.28597558
0.014024443 0.055657394 -0.32025126 -0.020394133 0.07218353 0.049789704 -0.26549816 0.073771544
-0.50279677 0.010836468 0.098636344 0.08631885 0.02806509 -0.08526001 -0.7609151 0.071555406
-0.4533604 0.02816126 -0.18006815 -0.08826437 0.07449538 0.10696228 0.086941004 0.07247503
-0.09002737 0.021812553 -0.41776857 -0.19863856 0.23975986 -0.048492234 -0.07468645 -0.029943103
-0.18005176 -0.5462392 0.40994084 -0.06888601 -0.05228286 -0.014723241 -0.48496562 -0.04083472
-0.17769969 -0.38499755 0.048514146 -0.0118078785 -0.6162236 -0.058346562 0.038317606 -0.3369054
0.0790437 -0.10817355 -0.013281637 -0.05440449 0.17064878 -0.06855391 0.064112425 -0.20598698
-0.30136633 0.2601701 -0.017137082 -0.045615107 0.05835084 -0.089422286 -0.29069734 0.11277465
00000000: ddd6 da3e 3d4d 4abe 1f1b 683e bd29 c7be
00000010: 41b2 3c3b c54e 4f3c 4f5b 593c 2adf 96bd
00000020: dcea 52bd 6898 673d ef1c 28bf bc9f 4f3d
00000030: 5065 c43a d918 aa3e ee45 dfbd 6e1b 963d
00000040: 76d7 fabc a80e 7b3d fe86 343e e569 0dbe
00000050: 8db7 393e 1191 653d e704 a3be 58fc 513e
00000060: 18b5 903e e6be b13d 2a2e 703d 9ab7 fd3d
00000070: c145 a13d 5eda b03a 9219 9b3d 2e1f dc3c
00000080: 916c 1abe 5f70 55bc 01a1 c33d cb0b 173d
00000090: c316 2b3d 0554 813d 8b6f a1bd 19f4 093d
000000a0: e40b 19bf b0f5 9abe 6fe1 01bd 9f46 b5bc
000000b0: 2c61 30be c317 173c 6936 9cbd 7fbd 80bc
000000c0: bd0c 1dbf 71d5 a03d a628 10bf c2de a83c
000000d0: 0cc1 eebe 8a5e 0fbe 658a 763e ee7d 6dbd
000000e0: e45d 80be 3ecd 05bc fe17 953e c14f d63c
000000f0: 1d43 623d fbd9 c0be 72f2 133d e92e 9abd
00000100: 5a3e 703d ff86 afbb d27f 63bd 29a0 a43c
00000110: 35e5 9bbd 3a70 203d c56e 8cbd 430b 8fbd
00000120: e6ac 9dbe 4931 4c3d 6e3f 46bd 0cf9 a5be
00000130: 2892 03be 3a21 a4bc df78 be3d 758f 013d
00000140: 8b78 113e 08af 263d 255e 213e 6b27 86bd
00000150: 55cb b83d 04e8 3ebc 6e5a dc3d acef 033e
00000160: 42cb 44bf 3a59 013f 963d f0be 728f ea3d
00000170: 0b6f 943e 4790 dabe f12d 3abe c412 47be
00000180: c63f f0bd 9292 52be 2188 acbd 8e9e 24bf
00000190: 0b98 b8bd c289 28bf bb49 443d 48d5 78bc
000001a0: 978f 0a3e 598a bebe 8677 13bd 4814 9e3d
000001b0: 70c2 a1bd fe29 33bc 9eb8 903d cb0d c5be
000001c0: 0810 183d 3d83 713e a76f 773d 937a 0fbd
000001d0: 2510 22bf a280 913d 4100 89bd 7c72 0b3e
000001e0: 4a4f 143f b3d3 ad3d e0d5 48bd 15be 8b3d
000001f0: 4d57 8c3b 02f5 8dbd 0448 fd3d ad12 97be
00000200: c281 5fbf 486c 34bd 755d 723c b495 03bf
00000210: 7728 a2bc cc60 4bbc 1e40 4bbd 5912 a53d
00000220: e164 37bd 98ec 213d 9d4e 6dbe 560b 233d
00000230: 4721 8e3e 85ed 45be 249d adbc 2ce8 c5bd
00000240: fed8 fabc 5dbc 083d a7b0 08bf f48a 9c3c
00000250: 635e 643d bd58 a4bd dc41 0bbd fb50 67be
00000260: 76b5 a63c f5ac 85bd 4862 af3d 841f 08bf
00000270: 3d0c 413c 577e 743d 7af8 6dbd c81f be3d
00000280: dd4c 83be d1ae cabd 84b6 91be 921c 3a3c
00000290: b9e3 0c3e 0a64 583c defc 453d 20fa e0bc
000002a0: 472a 6fbe ca15 a33c dc9f 663d 5fbd d7bc
000002b0: bedb 34bd 53d6 aa3d 2073 ccbc 0ae0 773b
000002c0: 5e72 d2be c90d a93d d9be 7dbb 3bfd 70ba
000002d0: 65d4 d5bd 5503 30bd 7229 3bbe 6804 9f3c
000002e0: 7736 05bd f1d0 803d 11e3 a63d cc01 b0bd
000002f0: 8901 9cbd 75ae 93be 1569 41bc 646b 92be
00000300: c7c6 653c 02f9 633d f9f7 a3be 9911 a7bc
00000310: f5d4 933d 4af0 4b3d 60ef 87be 8915 973d
00000320: 4ab7 00bf 718b 313c da01 ca3d f0c7 b03d
00000330: c2e8 e53c cd9c aebd 55cb 42bf a48b 923d
00000340: db1e e8be 71b2 e63c c963 38be f3c3 b4bd
00000350: 0991 983d 0a0f db3d 200e b23d ca6d 943d
00000360: 4560 b8bd 3db0 b23c c3e5 d5be e867 4bbe
00000370: 9c83 753e cb9f 46bd 36f5 98bd 3d4b f5bc
00000380: 7d5f 38be 55d6 0bbf c4e3 d13e 1c14 8dbd
00000390: 8d26 56bd c039 71bc 6a4d f8be 4f42 27bd
000003a0: e8f6 35be 661e c5be c5b6 463d d575 41bc
000003b0: d4c0 1dbf cefc 6ebd ecf2 1c3d dd7e acbe
000003c0: aae1 a13d 188a ddbd 399b 59bc 3ed7 5ebd
000003d0: 8ebe 2e3e fe65 8cbd 604d 833d 40ee 52be
000003e0: b04c 9abe 0435 853e 1163 8cbc e8d6 3abd
000003f0: 4a01 6f3d 0823 b7bd 48d6 94be 65f6 e63d

MLP_3.0.bias f4 [64]
-0.0019662941 0.06977748 0.06271212 -0.119001314 -0.122368254 0.1008573 0.04858054 0.082553655
0.03706697 0.060700186 0.06597324 -0.008886218 0.07519035 0.040032074 0.056344766 0.07583709
-0.27715176 0.071619816 -0.117397696 -0.09437463 -0.00290176 0.09280283 0.051558424 0.055583224
0.042493746 -0.066337205 0.06278665 0.085152835 0.04178685 0.048711445 0.093834065 0.049498998
0.04244707 0.06533632 0.06896365 0.08555604 0.038481448 0.08626056 0.030357666 0.049942423
0.069636695 0.053614963 0.08198562 0.07669238 0.076767735 -0.11127226 0.03084479 0.08010293
0.061612874 0.07034824 0.087827094 0.06016003 0.06370507 0.0931719 0.086216636 0.061411776
0.0791535 0.033031292 0.068391755 -0.062544934 0.0773032 0.06887223 -0.08417088 0.08680206
00000000: f1dc 00bb 7fe7 8e3d 366f 803d f6b6 f3bd
00000010: 359c fabd 468e ce3d 63fc 463d e411 a93d
00000020: 89d3 173d c2a0 783d fa1c 873d 8097 11bc
00000030: 66fd 993d acf8 233d c5c9 663d 7a50 9b3d
00000040: d6e6 8dbe 69ad 923d 346e f0bd 7c47 c1bd
00000050: 742b 3ebb 690f be3d ed2e 533d 3cab 633d
00000060: ec0d 2e3d cddb 87bd 4a96 803d 9c64 ae3d
00000070: b028 2b3d a785 473d 132c c03d 76bf 4a3d
00000080: fbdc 2d3d 0ccf 853d d03c 8d3d 0138 af3d
00000090: b99e 1d3d 60a9 b03d a4b0 f83c 6d90 4c3d
000000a0: af9d 8e3d 5d9b 5b3d 14e8 a73d e510 9d3d
000000b0: 6738 9d3d b6e2 e3bd 37ae fc3c 010d a43d
000000c0: c85d 7c3d bd12 903d b1de b33d 5d6a 763d
000000d0: ce77 823d e9d0 be3d 5992 b03d ea8a 7b3d
000000e0: 3b1b a23d d24b 073d fa10 8c3d 8f17 80bd
000000f0: 2451 9e3d e20c 8d3d c861 acbd 47c5 b13d

MLP_4.0.weight f4 [1, 64]
-0.12368197 -0.20638785 0.13723782 -0.005420139 0.027710542 -0.13546602 -0.20036118 0.053172946
0.12990701 0.047638215 0.044136874 -0.20140617 0.04540481 0.068653904 0.049406573 0.05260928
-0.52796704 0.05221646 -0.008298948 -0.009110138 -0.24318394 -0.41623467 0.06935432 -0.14023055
-0.29628673 -0.28480506 0.047933094 -0.13031112 -0.18752104 -0.35563207 -0.31307852 -0.14800647
0.054541852 0.048093792 0.048676066 -0.17116055 0.041526802 0.055044204 -0.30348095 0.14356425
0.048529357 0.06177152 -0.120797046 0.055481236 0.05729697 0.0031152512 0.057262607 0.045432337
0.049604885 0.06337653 0.0447424 0.05674418 -0.24802125 -0.21677478 -0.13011476 0.050925426
0.04971367 0.07079246 0.045541395 -0.037923086 0.053773474 0.050578907 -0.11300378 0.04899764
00000000: f94c fdbd 5657 53be 1288 0c3e 6c9b b1bb
00000010: 3801 e33c 9bb7 0abe 7b2b 4dbe e0cb 593d
00000020: 5806 053e 4a20 433d dec8 343d 6b3d 4ebe
00000030: 65fa 393d 6b9a 8c3d 8c5e 4a3d d47c 573d
00000040: d928 07bf ede0 553d 50f8 07bc b042 15bc
00000050: 3605 79be b61c d5be a309 8e3d 9998 0fbe
00000060: e5b2 97be f8d1 91be 7e55 443d 4770 05be
00000070: 8405 40be 6815 b6be d44b a0be 028f 17be
00000080: 4767 5f3d fffd 443d 8e60 473d b644 2fbe
00000090: 0218 2a3d 0876 613d db61 9bbe 8202 133e
000000a0: b8c6 463d 2204 7d3d 7164 f7bd 4b40 633d
000000b0: 3ab0 6a3d 3e29 4c3b 328c 6a3d 4217 3a3d
000000c0: 7e2e 4b3d 8ecb 813d cf43 373d 966c 683d
000000d0: 48f9 7dbe 35fa 5dbe ce3c 05be 2e97 503d
000000e0: 90a0 4b3d a3fb 903d 9d89 3a3d 3d55 1bbd
000000f0: 9341 5c3d d42b 4f3d 876e e7bd c0b1 483d
